…
2019-05-29 11:06:51.088117: W tensorflow/core/framework/allocator.cc:124] Allocation of 80000200 exceeds 10% of system memory.
WARNING:tensorflow:From /home/liushuhuan/.local/lib/python3.5/site-packages/keras/backend/tensorflow_backend.py:3445: calling dropout (from tensorflow.python.ops.nn_ops) with keep_prob is deprecated and will be removed in a future version.
Instructions for updating:
Please use `rate` instead of `keep_prob`. Rate should be set to `rate = 1 - keep_prob`.
_________________________________________________________________
Layer (type)                 Output Shape              Param #
=================================================================
input_1 (InputLayer)         (None, 10)                0
_________________________________________________________________
embedding_1 (Embedding)      (None, 10, 50)            20000050
_________________________________________________________________
lstm_1 (LSTM)                (None, 10, 128)           91648
_________________________________________________________________
dropout_1 (Dropout)          (None, 10, 128)           0
_________________________________________________________________
lstm_2 (LSTM)                (None, 128)               131584
_________________________________________________________________
dropout_2 (Dropout)          (None, 128)               0
_________________________________________________________________
dense_1 (Dense)              (None, 5)                 645
_________________________________________________________________
activation_1 (Activation)    (None, 5)                 0
=================================================================
Total params: 20,223,927
Trainable params: 223,877
Non-trainable params: 20,000,050
_________________________________________________________________
WARNING:tensorflow:From /home/liushuhuan/.local/lib/python3.5/site-packages/tensorflow/python/ops/math_ops.py:3066: to_int32 (from tensorflow.python.ops.math_ops) is deprecated and will be removed in a future version.
…
